…
--------------------------------------------------------------------------------
Total_batch_size: 256 = 256
--------------------------------------------------------------------------------
dataset_root:    trainer/all_data/test	 dataset: /
trainer/all_data/test/
sub-directory:	/.	 num samples: 18036
--------------------------------------------------------------------------------
No Transformation module specified
model input parameters 64 600 20 1 256 256 97 34 None VGG BiLSTM CTC
Model:
DataParallel(
  (module): Model(
    (FeatureExtraction): VGG_FeatureExtractor(
      (ConvNet): Sequential(
        (0): Conv2d(1, 32, kernel_size=(3, 3), stride=(1, 1), padding=(1, 1))
        (1): ReLU(inplace=True)
        (2): MaxPool2d(kernel_size=2, stride=2, padding=0, dilation=1, ceil_mode=False)
        (3): Conv2d(32, 64, kernel_size=(3, 3), stride=(1, 1), padding=(1, 1))
        (4): ReLU(inplace=True)
        (5): MaxPool2d(kernel_size=2, stride=2, padding=0, dilation=1, ceil_mode=False)
        (6): Conv2d(64, 128, kernel_size=(3, 3), stride=(1, 1), padding=(1, 1))
        (7): ReLU(inplace=True)
        (8): Conv2d(128, 128, kernel_size=(3, 3), stride=(1, 1), padding=(1, 1))
        (9): ReLU(inplace=True)
        (10): MaxPool2d(kernel_size=(2, 1), stride=(2, 1), padding=0, dilation=1, ceil_mode=False)
        (11): Conv2d(128, 256, kernel_size=(3, 3), stride=(1, 1), padding=(1, 1), bias=False)
        (12): BatchNorm2d(256, eps=1e-05, momentum=0.1, affine=True, track_running_stats=True)
        (13): ReLU(inplace=True)
        (14): Conv2d(256, 256, kernel_size=(3, 3), stride=(1, 1), padding=(1, 1), bias=False)
        (15): BatchNorm2d(256, eps=1e-05, momentum=0.1, affine=True, track_running_stats=True)
        (16): ReLU(inplace=True)
        (17): MaxPool2d(kernel_size=(2, 1), stride=(2, 1), padding=0, dilation=1, ceil_mode=False)
        (18): Conv2d(256, 256, kernel_size=(2, 2), stride=(1, 1))
        (19): ReLU(inplace=True)
      )
    )
    (AdaptiveAvgPool): AdaptiveAvgPool2d(output_size=(None, 1))
    (SequenceModeling): Sequential(
      (0): BidirectionalLSTM(
        (rnn): LSTM(256, 256, batch_first=True, bidirectional=True)
        (linear): Linear(in_features=512, out_features=256, bias=True)
      )
      (1): BidirectionalLSTM(
        (rnn): LSTM(256, 256, batch_first=True, bidirectional=True)
        (linear): Linear(in_features=512, out_features=256, bias=True)
      )
    )
    (Prediction): Linear(in_features=256, out_features=97, bias=True)
  )
)
Modules, Parameters
module.FeatureExtraction.ConvNet.0.weight 288
module.FeatureExtraction.ConvNet.0.bias 32
module.FeatureExtraction.ConvNet.3.weight 18432
module.FeatureExtraction.ConvNet.3.bias 64
module.FeatureExtraction.ConvNet.6.weight 73728
module.FeatureExtraction.ConvNet.6.bias 128
module.FeatureExtraction.ConvNet.8.weight 147456
module.FeatureExtraction.ConvNet.8.bias 128
…
